…
-charifchefchaouni-epfl', wandb_run_name='multiclevr_caption_d6-6w512', global_vars={'batch_size': 128, 'modalities': ['tok_rgb@256', 'tok_depth@256', 'tok_normal@256', 'scene_desc', 'caption'], 'vocab_sizes': [64000, 64000, 64000, 50304, 50304], 'max_seq_lens': [256, 256, 256, 256, 256], 'input_alphas': [1.0, 1.0, 1.0, 1.0, 1.0], 'target_alphas': [1.0, 1.0, 1.0, 1.0, 1.0], 'input_tokens_range': [1, 128], 'target_tokens_range': [1, 128]}, config_path='cfgs/nano4M/multiclevr_caption_d6-6w512.yaml', rank=0, world_size=4, gpu=0, distributed=True, dist_backend='nccl')
Model = FourM(
  (enc_tok_emb): Embedding(64000, 512)
  (enc_mod_emb): Embedding(5, 512)
  (dec_mod_emb): Embedding(5, 512)
  (encoder): TransformerTrunk(
    (blocks): ModuleList(
      (0-5): 6 x Block(
        (norm1): LayerNorm()
        (attn): Attention(
          (qkv): Linear(in_features=512, out_features=1536, bias=False)
          (attn_out_proj): Linear(in_features=512, out_features=512, bias=False)
        )
        (norm2): LayerNorm()
        (mlp): Mlp(
          (fc1): Linear(in_features=512, out_features=2048, bias=False)
          (fc2): Linear(in_features=2048, out_features=512, bias=False)
          (act): GELU(approximate='none')
        )
      )
    )
  )
  (decoder): TransformerDecoderTrunk(
    (blocks): ModuleList(
      (0-5): 6 x DecoderBlock(
        (norm1): LayerNorm()
        (query_norm): LayerNorm()
        (context_norm): LayerNorm()
        (norm2): LayerNorm()
        (self_attn): Attention(
          (qkv): Linear(in_features=512, out_features=1536, bias=False)
          (attn_out_proj): Linear(in_features=512, out_features=512, bias=False)
        )
        (cross_attn): CrossAttention(
          (q_proj): Linear(in_features=512, out_features=512, bias=False)
          (kv_proj): Linear(in_features=512, out_features=1024, bias=False)
          (attn_out_proj): Linear(in_features=512, out_features=512, bias=False)
        )
        (mlp): Mlp(
          (fc1): Linear(in_features=512, out_features=2048, bias=False)
          (fc2): Linear(in_features=2048, out_features=512, bias=False)
          (act): GELU(approximate='none')
        )
      )
    )
  )
  (dec_context_proj): Linear(in_features=512, out_features=512, bias=False)
  (to_logits): Linear(in_features=512, out_features=64000, bias=False)
  (enc_norm): LayerNorm()
  (dec_norm): LayerNorm()
)
Number of params: 109.862912 M
Total tokens: 5000M
Total iters: 38147
Warmup tokens: 500M
Warmup iters: 3815
Eval freq: every 763 iterations
Save ckpt freq: every 7630 iterations
Batch size per GPU = 128
Total (effective) batch size = 512
LR = 0.00060000
Min LR = 0.00000100
Param groups = {
  "decay": {
    "weight_decay": 0.05,
    "params": [
      "enc_tok_emb.weight",
      "enc_mod_emb.weight",
…
